…
an: False\n","no_vgg_loss: False\n","norm: instance\n","num_D: 3\n","output_nc: 3\n","phase: train\n","pool_size: 0\n","print_freq: 100\n","resize_or_crop: none\n","save_epoch_freq: 10\n","save_latest_freq: 100\n","serial_batches: False\n","tf_log: True\n","use_dropout: False\n","use_l1: False\n","which_epoch: latest\n","-------------- End ----------------\n","Resuming from epoch 5 at iteration 15432\n","CustomDatasetDataLoader\n","dataset [AlignedDataset] was created\n","#training images = 6367\n","LocalEnhancer(\n","  (model): Sequential(\n","    (0): ReflectionPad2d((3, 3, 3, 3))\n","    (1): Conv2d(6, 64, kernel_size=(7, 7), stride=(1, 1))\n","    (2): InstanceNorm2d(64, eps=1e-05, momentum=0.1, affine=False, track_running_stats=False)\n","    (3): ReLU(inplace=True)\n","    (4): Conv2d(64, 128, kernel_size=(3, 3), stride=(2, 2), padding=(1, 1))\n","    (5): InstanceNorm2d(128, eps=1e-05, momentum=0.1, affine=False, track_running_stats=False)\n","    (6): ReLU(inplace=True)\n","    (7): Conv2d(128, 256, kernel_size=(3, 3), stride=(2, 2), padding=(1, 1))\n","    (8): InstanceNorm2d(256, eps=1e-05, momentum=0.1, affine=False, track_running_stats=False)\n","    (9): ReLU(inplace=True)\n","    (10): Conv2d(256, 512, kernel_size=(3, 3), stride=(2, 2), padding=(1, 1))\n","    (11): InstanceNorm2d(512, eps=1e-05, momentum=0.1, affine=False, track_running_stats=False)\n","    (12): ReLU(inplace=True)\n","    (13): Conv2d(512, 1024, kernel_size=(3, 3), stride=(2, 2), padding=(1, 1))\n","    (14): InstanceNorm2d(1024, eps=1e-05, momentum=0.1, affine=False, track_running_stats=False)\n","    (15): ReLU(inplace=True)\n","    (16): ResnetBlock(\n","      (conv_block): Sequential(\n","        (0): ReflectionPad2d((1, 1, 1, 1))\n","        (1): Conv2d(1024, 1024, kernel_size=(3, 3), stride=(1, 1))\n","        (2): InstanceNorm2d(1024, eps=1e-05, momentum=0.1, affine=False, track_running_stats=False)\n","        (3): ReLU(inplace=True)\n","        (4): ReflectionPad2d((1, 1, 1, 1))\n","        (5): Conv2d(1024, 1024, kernel_size=(3, 3), stride=(1, 1))\n","        (6): InstanceNorm2d(1024, eps=1e-05, momentum=0.1, affine=False, track_running_stats=False)\n","      )\n","    )\n","    (17): ResnetBlock(\n","      (conv_block): Sequential(\n","        (0): ReflectionPad2d((1, 1, 1, 1))\n","        (1): Conv2d(1024, 1024, kernel_size=(3, 3), stride=(1, 1))\n","        (2): InstanceNorm2d(1024, eps=1e-05, momentum=0.1, affine=False, track_running_stats=False)\n","        (3): ReLU(inplace=True)\n","        (4): ReflectionPad2d((1, 1, 1, 1))\n","        (5): Conv2d(1024, 1024, kernel_size=(3, 3), stride=(1, 1))\n","        (6): InstanceNorm2d(1024, eps=1e-05, momentum=0.1, affine=False, track_running_stats=False)\n","      )\n","    )\n","    (18): ResnetBlock(\n","      (conv_block): Sequential(\n","        (0): ReflectionPad2d((1, 1, 1, 1))\n","        (1): Conv2d(1024, 1024, kernel_size=(3, 3), stride=(1, 1))\n","        (2): InstanceNorm2d(1024, eps=1e-05, momentum=0.1, affine=False, track_running_stats=False)\n","        (3): ReLU(inplace=True)\n","        (4): ReflectionPad2d((1, 1, 1, 1))\n","        (5): Conv2d(1024, 1024, kernel_size=(3, 3), stride=(1, 1))\n","        (6): InstanceNorm2d(1024, eps=1e-05, momentum=0.1, affine=False, track_running_stats=False)\n","      )\n","    )\n","    (19): ResnetBlock(\n","      (conv_block): Sequential(\n","        (0): ReflectionPad2d((1, 1, 1, 1))\n","        (1): Conv2d(1024, 1024, kernel_size=(3, 3), stride=(1, 1))\n","        (2): InstanceNorm2d(1024, eps=1e-05, momentum=0.1, affine=False, track_running_stats=False)\n","        (3): ReLU(inplace=True)\n","        (4): ReflectionPad2d((1, 1, 1, 1))\n","        (5): Conv2d(1024, 1024, kernel_size=(3, 3), stride=(1, 1))\n","        (6): InstanceNorm2d(1024, eps=1e-05, momentum=0.1, affine=False, track_running_stats=False)\n","      )\n","    )\n","    (20): ResnetBlock(\n","      (conv_block): Sequential(\n","        (0): ReflectionPad2d((1, 1, 1, 1))\n","        (1): Conv2d(1024, 1024, kernel_size=(3, 3), stride=(1, 1))\n","        (2): InstanceNorm2d(1024, eps=1e-05, momentum=0.1, affine=False, track_running_stats=False)\n","        (3): ReLU(inplace=True)\n","        (4): ReflectionPad2d((1, 1, 1, 1))\n","        (5): Conv2d(1024, 1024, kernel_size=(3, 3), stride=(1, 1))\n","        (6): InstanceNorm2d(1024, eps=1e-05, momentum=0.1, affine=False, track_running_stats=False)\n","      )\n","    )\n","    (21): ResnetBlock(\n","      (conv_block): Sequential(\n","        (0): ReflectionPad2d((1, 1, 1, 1))\n","        (1): Conv2d(1024, 1024, kernel_size=(3, 3), stride=(1, 1))\n","        (2): InstanceNorm2d(1024, eps=1e-05, momentum=0.1, affine=False, track_running_stats=False)\n","        (3): ReLU(inplace=True)\n","        (4): ReflectionPad2d((1, 1, 1, 1))\n","        (5): Conv2d(1024, 1024, kernel_size=(3, 3), stride=(1, 1))\n","        (6): InstanceNorm2d(1024, eps=1e-05, momentum=0.1, affine=False, track_running_stats=False)\n","      )\n","    )\n","    (22): ResnetBlock(\n","      (conv_block): Sequential(\n","        (0): ReflectionPad2d((1, 1, 1, 1))\n","        (1): Conv2d(1024, 1024, kernel_size=(3, 3), stride=(1, 1))\n","        (2): InstanceNorm2d(1024, eps=1e-05, momentum=0.1, affine=False, track_running_stats=False)\n","        (3): ReLU(inplace=True)\n","        (4): ReflectionPad2d((1, 1, 1, 1))\n","        (5): Conv2d(1024, 1024, kernel_size=(3, 3), stride=(1, 1))\n","        (6): InstanceNorm2d(1024, eps=1e-05, momentum=0.1, affine=False, track_running_stats=False)\n","      )\n","    )\n","    (23): ResnetBlock(\n","      (conv_block): Sequential(\n","        (0): ReflectionPad2d((1, 1, 1, 1))\n","        (1): Conv2d(1024, 1024, kernel_size=(3, 3), stride=(1, 1))\n","        (2): InstanceNorm2d(1024, eps=1e-05, momentum=0.1, affine=False, track_running_stats=False)\n","        (3): ReLU(inplace=True)\n","        (4): ReflectionPad2d((1, 1, 1, 1))\n","        (5): Conv2d(1024, 1024, kernel_size=(3, 3), stride=(1, 1))\n","        (6): InstanceNorm2d(1024, eps=1e-05, momentum=0.1, affine=False, track_running_stats=False)\n","      )\n","    )\n","    (24): ResnetBlock(\n","      (conv_block): Sequential(\n","        (0): ReflectionPad2d((1, 1, 1, 1))\n","        (1): Conv2d(1024, 1024, kernel_size=(3, 3), stride=(1, 1))\n","        (2): InstanceNorm2d(1024, eps=1e-05, momentum=0.1, affine=False, track_running_stats=False)\n","        (3): ReLU(inplace=True)\n","        (4): ReflectionPad2d((1, 1, 1, 1))\n","        (5): Conv2d(1024, 1024, kernel_size=(3, 3), stride=(1, 1))\n","        (6): InstanceNorm2d(1024, eps=1e-05, momentum=0.1, affine=False, track_running_stats=False)\n","      )\n","    )\n","    (25): ConvTranspose2d(1024, 512, kernel_size=(3, 3), stride=(2, 2), padding=(1, 1), output_padding=(1, 1))\n","    (26): InstanceNorm2d(512, eps=1e-05, momentum=0.1, affine=False, track_running_stats=False)\n","    (27): ReLU(inplace=True)\n","    (28): ConvTranspose2d(512, 256, kernel_size=(3, 3), stride=(2, 2), padding=(1, 1), output_padding=(1, 1))\n","    (29): InstanceNorm2d(256, eps=1e-05, momentum=0.1, affine=False, track_running_stats=False)\n","    (30): ReLU(inplace=True)\n","    (31): ConvTranspose2d(256, 128, kernel_size=(3, 3), stride=(2, 2), padding=(1, 1), output_padding=(1, 1))\n","    (32): InstanceNorm2d(128, eps=1e-05, momentum=0.1, affine=False, track_running_stats=False)\n","    (33): ReLU(inplace=True)\n","    (34): ConvTranspose2d(128, 64, kernel_size=(3, 3), stride=(2, 2), padding=(1, 1), output_padding=(1, 1))\n","    (35): InstanceNorm2d(64, eps=1e-05, momentum=0.1, affine=False, track_running_stats=False)\n","    (36): ReLU(inplace=True)\n","  )\n","  (model1_1): Sequential(\n","    (0): ReflectionPad2d((3, 3, 3, 3))\n","    (1): Conv2d(6, 32, kernel_size=(7, 7), stride=(1, 1))\n","    (2): InstanceNorm2d(32, eps=1e-05, momentum=0.1, affine=False, track_running_stats=False)\n","    (3): ReLU(inplace=True)\n","    (4): Conv2d(32, 64, kernel_size=(3, 3), stride=(2, 2), padding=(1, 1))\n","    (5): InstanceNorm2d(64, eps=1e-05, momentum=0.1, affine=False, track_running_stats=False)\n","    (6): ReLU(inplace=True)\n","  )\n","  (model1_2): Sequential(\n","    (0): ResnetBlock(\n","      (conv_block): Sequential(\n","        (0): ReflectionPad2d((1, 1, 1, 1))\n","        (1): Conv2d(64, 64, kernel_size=(3, 3), stride=(1, 1))\n","        (2): InstanceNorm2d(64, eps=1e-05, momentum=0.1, affine=False, track_running_stats=False)\n","        (3): ReLU(inplace=True)\n","        (4): ReflectionPad2d((1, 1, 1, 1))\n","        (5): Conv2d(64, 64, kernel_size=(3, 3), stride=(1, 1))\n","        (6): InstanceNorm2d(64, eps=1e-05, momentum=0.1, affine=False, track_running_stats=False)\n","      )\n","    )\n","    (1): ResnetBlock(\n","      (conv_block): Sequential(\n","        (0): ReflectionPad2d((1, 1, 1, 1))\n","        (1): Conv2d(64, 64, kernel_size=(3, 3), stride=(1, 1))\n","        (2): InstanceNorm2d(64, eps=1e-05, momentum=0.1, affine=False, track_running_stats=False)\n","        (3): ReLU(inplace=True)\n","        (4): ReflectionPad2d((1, 1, 1, 1))\n","        (5): Conv2d(64, 64, kernel_size=(3, 3), stride=(1, 1))\n","        (6): InstanceNorm2d(64, eps=1e-05, momentum=0.1, affine=False, track_running_stats=False)\n","      )\n","    )\n","    (2): ResnetBlock(\n","      (conv_block): Sequential(\n","        (0): ReflectionPad2d((1, 1, 1, 1))\n","        (1): Conv2d(64, 64, kernel_size=(3, 3), stride=(1, 1))\n","        (2): InstanceNorm2d(64, eps=1e-05, momentum=0.1, affine=False, track_running_stats=False)\n","        (3): ReLU(inplace=True)\n","        (4): ReflectionPad2d((1, 1, 1, 1))\n","        (5): Conv2d(64, 64, kernel_size=(3, 3), stride=(1, 1))\n","        (6): InstanceNorm2d(64, eps=1e-05, momentum=0.1, affine=False, track_running_stats=False)\n","      )\n","    )\n","    (3): ConvTranspose2d(64, 32, kernel_size=(3, 3), stride=(2, 2), padding=(1, 1), output_padding=(1, 1))\n","    (4): InstanceNorm2d(32, eps=1e-05, momentum=0.1, affine=False, track_running_stats=False)\n","    (5): ReLU(inplace=True)\n","    (6): ReflectionPad2d((3, 3, 3, 3))\n","    (7): Conv2d(32, 3, kernel_size=(7, 7), stride=(1, 1))\n","    (8): Tanh()\n","  )\n","  (downsample): AvgPool2d(kernel_size=3, stride=2, padding=[1, 1])\n",")\n","MultiscaleDiscriminator(\n","  (scale0_layer0): Sequential(\n","    (0): Conv2d(12, 64, kernel_size=(4, 4), stride=(2, 2), padding=(2, 2))\n","    (1): LeakyReLU(negative_slope=0.2, inplace=True)\n","  )\n","  (scale0_layer1): Sequential(\n","    (0): Conv2d(64, 128, kernel_size=(4, 4), stride=(2, 2), padding=(2, 2))\n","    (1): InstanceNorm2d(128, eps=1e-05, momentum=0.1, affine=False, track_running_stats=False)\n","    (2): LeakyReLU(negative_slope=0.2, inplace=True)\n","  )\n","  (scale0_layer2): Sequential(\n","    (0): Conv2d(128, 256, kernel_size=(4, 4), stride=(2, 2), padding=(2, 2))\n","    (1): InstanceNorm2d(256, eps=1e-05, momentum=0.1, affine=False, track_running_stats=False)\n","    (2): LeakyReLU(negative_slope=0.2, inplace=True)\n","  )\n","  (scale0_layer3): Sequential(\n","    (0): Conv2d(256, 512, kernel_size=(4, 4), stride=(1, 1), padding=(2, 2))\n","    (1): InstanceNorm2d(512, eps=1e-05, momentum=0.1, affine=False, track_running_stats=False)\n","    (2): LeakyReLU(negative_slope=0.2, inplace=True)\n","  )\n","  (scale0_layer4): Sequential(\n","    (0): Conv2d(512, 1, kernel_size=(4, 4), stride=(1, 1), padding=(2, 2))\n","  )\n","  (scale1_layer0): Sequential(\n","    (0): Conv2d(12, 64, kernel_size=(4, 4), stride=(2, 2), padding=(2, 2))\n","    (1): LeakyReLU(negative_slope=0.2, inplace=True)\n","  )\n","  (scale1_layer1): Sequential(\n","    (0): Conv2d(64, 128, kernel_size=(4, 4), stride=(2, 2), padding=(2, 2))\n","    (1): InstanceNorm2d(128, eps=1e-05, momentum=0.1, affine=False, track_running_stats=False)\n","    (2): LeakyReLU(negative_slope=0.2, inplace=True)\n","  )\n","  (scale1_layer2): Sequential(\n","    (0): Conv2d(128, 256, kernel_size=(4, 4), stride=(2, 2), padding=(2, 2))\n","    (1): InstanceNorm2d(256, eps=1e-05, momentum=0.1, affine=False, track_running_stats=False)\n","    (2): LeakyReLU(negative_slope=0.2, inplace=True)\n","  )\n","  (scale1_layer3): Sequential(\n","    (0): Conv2d(256, 512, kernel_size=(4, 4), stride=(1, 1), padding=(2, 2))\n","    (1): InstanceNorm2d(512, eps=1e-05, momentum=0.1, affine=False, track_running_stats=False)\n","    (2): LeakyReLU(negative_slope=0.2, inplace=True)\n","  )\n","  (scale1_layer4): Sequential(\n","    (0): Conv2d(512, 1, kernel_size=(4, 4), stride=(1, 1), padding=(2, 2))\n","  )\n","  (scale2_layer0): Sequential(\n","    (0): Conv2d(12, 64, kernel_size=(4, 4), stride=(2, 2), padding=(2, 2))\n","    (1): LeakyReLU(negative_slope=0.2, inplace=True)\n","  )\n","  (scale2_layer1): Sequential(\n","    (0): Conv2d(64, 128, kernel_size=(4, 4), stride=(2, 2), padding=(2, 2))\n","    (1): InstanceNorm2d(128, eps=1e-05, momentum=0.1, affine=False, track_running_stats=False)\n","    (2): LeakyReLU(negative_slope=0.2, inplace=True)\n","  )\n","  (scale2_layer2): Sequential(\n","    (0): Conv2d(128, 256, kernel_size=(4, 4), stride=(2, 2), padding=(2, 2))\n","    (1): InstanceNorm2d(256, eps=1e-05, momentum=0.1, affine=False, track_running_stats=False)\n","    (2): LeakyReLU(negative_slope=0.2, inplace=True)\n","  )\n","  (scale2_layer3): Sequential(\n","    (0): Conv2d(256, 512, kernel_size=(4, 4), stride=(1, 1), padding=(2, 2))\n","    (1): InstanceNorm2d(512, eps=1e-05, momentum=0.1, affine=False, track_running_stats=False)\n","    (2): LeakyReLU(negative_slope=0.2, inplace=True)\n","  )\n","  (scale2_layer4): Sequential(\n","    (0): Conv2d(512, 1, kernel_size=(4, 4), stride=(1, 1), padding=(2, 2))\n","  )\n","  (downsample): AvgPool2d(kernel_size=3, stride=2, padding=[1, 1])\n",")\n","---------- Networks initialized -------------\n","/usr/local/lib/python3.6/dist-packages/torch/optim/adam.py:48: UserWarning: optimizer contains a parameter group with duplicate parameters; in future, this will cause an error; see github.com/pytorch/py
…
rain\n","pool_size: 0\n","print_freq: 100\n","resize_or_crop: none\n","save_epoch_freq: 10\n","save_latest_freq: 100\n","serial_batches: False\n","tf_log: True\n","use_dropout: False\n","use_l1: False\n","which_epoch: latest\n","-------------- End ----------------\n","Resuming from epoch 7 at iteration 7264\n","CustomDatasetDataLoader\n","dataset [AlignedDataset] was created\n","----------- loading face bounding boxes from ./dataset/train/train_facetexts128 ----------\n","#training images = 6367\n","LocalEnhancer(\n","  (model): Sequential(\n","    (0): ReflectionPad2d((3, 3, 3, 3))\n","    (1): Conv2d(6, 64, kernel_size=(7, 7), stride=(1, 1))\n","    (2): InstanceNorm2d(64, eps=1e-05, momentum=0.1, affine=False, track_running_stats=False)\n","    (3): ReLU(inplace=True)\n","    (4): Conv2d(64, 128, kernel_size=(3, 3), stride=(2, 2), padding=(1, 1))\n","    (5): InstanceNorm2d(128, eps=1e-05, momentum=0.1, affine=False, track_running_stats=False)\n","    (6): ReLU(inplace=True)\n","    (7): Conv2d(128, 256, kernel_size=(3, 3), stride=(2, 2), padding=(1, 1))\n","    (8): InstanceNorm2d(256, eps=1e-05, momentum=0.1, affine=False, track_running_stats=False)\n","    (9): ReLU(inplace=True)\n","    (10): Conv2d(256, 512, kernel_size=(3, 3), stride=(2, 2), padding=(1, 1))\n","    (11): InstanceNorm2d(512, eps=1e-05, momentum=0.1, affine=False, track_running_stats=False)\n","    (12): ReLU(inplace=True)\n","    (13): Conv2d(512, 1024, kernel_size=(3, 3), stride=(2, 2), padding=(1, 1))\n","    (14): InstanceNorm2d(1024, eps=1e-05, momentum=0.1, affine=False, track_running_stats=False)\n","    (15): ReLU(inplace=True)\n","    (16): ResnetBlock(\n","      (conv_block): Sequential(\n","        (0): ReflectionPad2d((1, 1, 1, 1))\n","        (1): Conv2d(1024, 1024, kernel_size=(3, 3), stride=(1, 1))\n","        (2): InstanceNorm2d(1024, eps=1e-05, momentum=0.1, affine=False, track_running_stats=False)\n","        (3): ReLU(inplace=True)\n","        (4): ReflectionPad2d((1, 1, 1, 1))\n","        (5): Conv2d(1024, 1024, kernel_size=(3, 3), stride=(1, 1))\n","        (6): InstanceNorm2d(1024, eps=1e-05, momentum=0.1, affine=False, track_running_stats=False)\n","      )\n","    )\n","    (17): ResnetBlock(\n","      (conv_block): Sequential(\n","        (0): ReflectionPad2d((1, 1, 1, 1))\n","        (1): Conv2d(1024, 1024, kernel_size=(3, 3), stride=(1, 1))\n","        (2): InstanceNorm2d(1024, eps=1e-05, momentum=0.1, affine=False, track_running_stats=False)\n","        (3): ReLU(inplace=True)\n","        (4): ReflectionPad2d((1, 1, 1, 1))\n","        (5): Conv2d(1024, 1024, kernel_size=(3, 3), stride=(1, 1))\n","        (6): InstanceNorm2d(1024, eps=1e-05, momentum=0.1, affine=False, track_running_stats=False)\n","      )\n","    )\n","    (18): ResnetBlock(\n","      (conv_block): Sequential(\n","        (0): ReflectionPad2d((1, 1, 1, 1))\n","        (1): Conv2d(1024, 1024, kernel_size=(3, 3), stride=(1, 1))\n","        (2): InstanceNorm2d(1024, eps=1e-05, momentum=0.1, affine=False, track_running_stats=False)\n","        (3): ReLU(inplace=True)\n","        (4): ReflectionPad2d((1, 1, 1, 1))\n","        (5): Conv2d(1024, 1024, kernel_size=(3, 3), stride=(1, 1))\n","        (6): InstanceNorm2d(1024, eps=1e-05, momentum=0.1, affine=False, track_running_stats=False)\n","      )\n","    )\n","    (19): ResnetBlock(\n","      (conv_block): Sequential(\n","        (0): ReflectionPad2d((1, 1, 1, 1))\n","        (1): Conv2d(1024, 1024, kernel_size=(3, 3), stride=(1, 1))\n","        (2): InstanceNorm2d(1024, eps=1e-05, momentum=0.1, affine=False, track_running_stats=False)\n","        (3): ReLU(inplace=True)\n","        (4): ReflectionPad2d((1, 1, 1, 1))\n","        (5): Conv2d(1024, 1024, kernel_size=(3, 3), stride=(1, 1))\n","        (6): InstanceNorm2d(1024, eps=1e-05, momentum=0.1, affine=False, track_running_stats=False)\n","      )\n","    )\n","    (20): ResnetBlock(\n","      (conv_block): Sequential(\n","        (0): ReflectionPad2d((1, 1, 1, 1))\n","        (1): Conv2d(1024, 1024, kernel_size=(3, 3), stride=(1, 1))\n","        (2): InstanceNorm2d(1024, eps=1e-05, momentum=0.1, affine=False, track_running_stats=False)\n","        (3): ReLU(inplace=True)\n","        (4): ReflectionPad2d((1, 1, 1, 1))\n","        (5): Conv2d(1024, 1024, kernel_size=(3, 3), stride=(1, 1))\n","        (6): InstanceNorm2d(1024, eps=1e-05, momentum=0.1, affine=False, track_running_stats=False)\n","      )\n","    )\n","    (21): ResnetBlock(\n","      (conv_block): Sequential(\n","        (0): ReflectionPad2d((1, 1, 1, 1))\n","        (1): Conv2d(1024, 1024, kernel_size=(3, 3), stride=(1, 1))\n","        (2): InstanceNorm2d(1024, eps=1e-05, momentum=0.1, affine=False, track_running_stats=False)\n","        (3): ReLU(inplace=True)\n","        (4): ReflectionPad2d((1, 1, 1, 1))\n","        (5): Conv2d(1024, 1024, kernel_size=(3, 3), stride=(1, 1))\n","        (6): InstanceNorm2d(1024, eps=1e-05, momentum=0.1, affine=False, track_running_stats=False)\n","      )\n","    )\n","    (22): ResnetBlock(\n","      (conv_block): Sequential(\n","        (0): ReflectionPad2d((1, 1, 1, 1))\n","        (1): Conv2d(1024, 1024, kernel_size=(3, 3), stride=(1, 1))\n","        (2): InstanceNorm2d(1024, eps=1e-05, momentum=0.1, affine=False, track_running_stats=False)\n","        (3): ReLU(inplace=True)\n","        (4): ReflectionPad2d((1, 1, 1, 1))\n","        (5): Conv2d(1024, 1024, kernel_size=(3, 3), stride=(1, 1))\n","        (6): InstanceNorm2d(1024, eps=1e-05, momentum=0.1, affine=False, track_running_stats=False)\n","      )\n","    )\n","    (23): ResnetBlock(\n","      (conv_block): Sequential(\n","        (0): ReflectionPad2d((1, 1, 1, 1))\n","        (1): Conv2d(1024, 1024, kernel_size=(3, 3), stride=(1, 1))\n","        (2): InstanceNorm2d(1024, eps=1e-05, momentum=0.1, affine=False, track_running_stats=False)\n","        (3): ReLU(inplace=True)\n","        (4): ReflectionPad2d((1, 1, 1, 1))\n","        (5): Conv2d(1024, 1024, kernel_size=(3, 3), stride=(1, 1))\n","        (6): InstanceNorm2d(1024, eps=1e-05, momentum=0.1, affine=False, track_running_stats=False)\n","      )\n","    )\n","    (24): ResnetBlock(\n","      (conv_block): Sequential(\n","        (0): ReflectionPad2d((1, 1, 1, 1))\n","        (1): Conv2d(1024, 1024, kernel_size=(3, 3), stride=(1, 1))\n","        (2): InstanceNorm2d(1024, eps=1e-05, momentum=0.1, affine=False, track_running_stats=False)\n","        (3): ReLU(inplace=True)\n","        (4): ReflectionPad2d((1, 1, 1, 1))\n","        (5): Conv2d(1024, 1024, kernel_size=(3, 3), stride=(1, 1))\n","        (6): InstanceNorm2d(1024, eps=1e-05, momentum=0.1, affine=False, track_running_stats=False)\n","      )\n","    )\n","    (25): ConvTranspose2d(1024, 512, kernel_size=(3, 3), stride=(2, 2), padding=(1, 1), output_padding=(1, 1))\n","    (26): InstanceNorm2d(512, eps=1e-05, momentum=0.1, affine=False, track_running_stats=False)\n","    (27): ReLU(inplace=True)\n","    (28): ConvTranspose2d(512, 256, kernel_size=(3, 3), stride=(2, 2), padding=(1, 1), output_padding=(1, 1))\n","    (29): InstanceNorm2d(256, eps=1e-05, momentum=0.1, affine=False, track_running_stats=False)\n","    (30): ReLU(inplace=True)\n","    (31): ConvTranspose2d(256, 128, kernel_size=(3, 3), stride=(2, 2), padding=(1, 1), output_padding=(1, 1))\n","    (32): InstanceNorm2d(128, eps=1e-05, momentum=0.1, affine=False, track_running_stats=False)\n","    (33): ReLU(inplace=True)\n","    (34): ConvTranspose2d(128, 64, kernel_size=(3, 3), stride=(2, 2), padding=(1, 1), output_padding=(1, 1))\n","    (35): InstanceNorm2d(64, eps=1e-05, momentum=0.1, affine=False, track_running_stats=False)\n","    (36): ReLU(inplace=True)\n","  )\n","  (model1_1): Sequential(\n","    (0): ReflectionPad2d((3, 3, 3, 3))\n","    (1): Conv2d(6, 32, kernel_size=(7, 7), stride=(1, 1))\n","    (2): InstanceNorm2d(32, eps=1e-05, momentum=0.1, affine=False, track_running_stats=False)\n","    (3): ReLU(inplace=True)\n","    (4): Conv2d(32, 64, kernel_size=(3, 3), stride=(2, 2), padding=(1, 1))\n","    (5): InstanceNorm2d(64, eps=1e-05, momentum=0.1, affine=False, track_running_stats=False)\n","    (6): ReLU(inplace=True)\n","  )\n","  (model1_2): Sequential(\n","    (0): ResnetBlock(\n","      (conv_block): Sequential(\n","        (0): ReflectionPad2d((1, 1, 1, 1))\n","        (1): Conv2d(64, 64, kernel_size=(3, 3), stride=(1, 1))\n","        (2): InstanceNorm2d(64, eps=1e-05, momentum=0.1, affine=False, track_running_stats=False)\n","        (3): ReLU(inplace=True)\n","        (4): ReflectionPad2d((1, 1, 1, 1))\n","        (5): Conv2d(64, 64, kernel_size=(3, 3), stride=(1, 1))\n","        (6): InstanceNorm2d(64, eps=1e-05, momentum=0.1, affine=False, track_running_stats=False)\n","      )\n","    )\n","    (1): ResnetBlock(\n","      (conv_block): Sequential(\n","        (0): ReflectionPad2d((1, 1, 1, 1))\n","        (1): Conv2d(64, 64, kernel_size=(3, 3), stride=(1, 1))\n","        (2): InstanceNorm2d(64, eps=1e-05, momentum=0.1, affine=False, track_running_stats=False)\n","        (3): ReLU(inplace=True)\n","        (4): ReflectionPad2d((1, 1, 1, 1))\n","        (5): Conv2d(64, 64, kernel_size=(3, 3), stride=(1, 1))\n","        (6): InstanceNorm2d(64, eps=1e-05, momentum=0.1, affine=False, track_running_stats=False)\n","      )\n","    )\n","    (2): ResnetBlock(\n","      (conv_block): Sequential(\n","        (0): ReflectionPad2d((1, 1, 1, 1))\n","        (1): Conv2d(64, 64, kernel_size=(3, 3), stride=(1, 1))\n","        (2): InstanceNorm2d(64, eps=1e-05, momentum=0.1, affine=False, track_running_stats=False)\n","        (3): ReLU(inplace=True)\n","        (4): ReflectionPad2d((1, 1, 1, 1))\n","        (5): Conv2d(64, 64, kernel_size=(3, 3), stride=(1, 1))\n","        (6): InstanceNorm2d(64, eps=1e-05, momentum=0.1, affine=False, track_running_stats=False)\n","      )\n","    )\n","    (3): ConvTranspose2d(64, 32, kernel_size=(3, 3), stride=(2, 2), padding=(1, 1), output_padding=(1, 1))\n","    (4): InstanceNorm2d(32, eps=1e-05, momentum=0.1, affine=False, track_running_stats=False)\n","    (5): ReLU(inplace=True)\n","    (6): ReflectionPad2d((3, 3, 3, 3))\n","    (7): Conv2d(32, 3, kernel_size=(7, 7), stride=(1, 1))\n","    (8): Tanh()\n","  )\n","  (downsample): AvgPool2d(kernel_size=3, stride=2, padding=[1, 1])\n",")\n","MultiscaleDiscriminator(\n","  (scale0_layer0): Sequential(\n","    (0): Conv2d(12, 64, kernel_size=(4, 4), stride=(2, 2), padding=(2, 2))\n","    (1): LeakyReLU(negative_slope=0.2, inplace=True)\n","  )\n","  (scale0_layer1): Sequential(\n","    (0): Conv2d(64, 128, kernel_size=(4, 4), stride=(2, 2), padding=(2, 2))\n","    (1): InstanceNorm2d(128, eps=1e-05, momentum=0.1, affine=False, track_running_stats=False)\n","    (2): LeakyReLU(negative_slope=0.2, inplace=True)\n","  )\n","  (scale0_layer2): Sequential(\n","    (0): Conv2d(128, 256, kernel_size=(4, 4), stride=(2, 2), padding=(2, 2))\n","    (1): InstanceNorm2d(256, eps=1e-05, momentum=0.1, affine=False, track_running_stats=False)\n","    (2): LeakyReLU(negative_slope=0.2, inplace=True)\n","  )\n","  (scale0_layer3): Sequential(\n","    (0): Conv2d(256, 512, kernel_size=(4, 4), stride=(1, 1), padding=(2, 2))\n","    (1): InstanceNorm2d(512, eps=1e-05, momentum=0.1, affine=False, track_running_stats=False)\n","    (2): LeakyReLU(negative_slope=0.2, inplace=True)\n","  )\n","  (scale0_layer4): Sequential(\n","    (0): Conv2d(512, 1, kernel_size=(4, 4), stride=(1, 1), padding=(2, 2))\n","  )\n","  (scale1_layer0): Sequential(\n","    (0): Conv2d(12, 64, kernel_size=(4, 4), stride=(2, 2), padding=(2, 2))\n","    (1): LeakyReLU(negative_slope=0.2, inplace=True)\n","  )\n","  (scale1_layer1): Sequential(\n","    (0): Conv2d(64, 128, kernel_size=(4, 4), stride=(2, 2), padding=(2, 2))\n","    (1): InstanceNorm2d(128, eps=1e-05, momentum=0.1, affine=False, track_running_stats=False)\n","    (2): LeakyReLU(negative_slope=0.2, inplace=True)\n","  )\n","  (scale1_layer2): Sequential(\n","    (0): Conv2d(128, 256, kernel_size=(4, 4), stride=(2, 2), padding=(2, 2))\n","    (1): InstanceNorm2d(256, eps=1e-05, momentum=0.1, affine=False, track_running_stats=False)\n","    (2): LeakyReLU(negative_slope=0.2, inplace=True)\n","  )\n","  (scale1_layer3): Sequential(\n","    (0): Conv2d(256, 512, kernel_size=(4, 4), stride=(1, 1), padding=(2, 2))\n","    (1): InstanceNorm2d(512, eps=1e-05, momentum=0.1, affine=False, track_running_stats=False)\n","    (2): LeakyReLU(negative_slope=0.2, inplace=True)\n","  )\n","  (scale1_layer4): Sequential(\n","    (0): Conv2d(512, 1, kernel_size=(4, 4), stride=(1, 1), padding=(2, 2))\n","  )\n","  (scale2_layer0): Sequential(\n","    (0): Conv2d(12, 64, kernel_size=(4, 4), stride=(2, 2), padding=(2, 2))\n","    (1): LeakyReLU(negative_slope=0.2, inplace=True)\n","  )\n","  (scale2_layer1): Sequential(\n","    (0): Conv2d(64, 128, kernel_size=(4, 4), stride=(2, 2), padding=(2, 2))\n","    (1): InstanceNorm2d(128, eps=1e-05, momentum=0.1, affine=False, track_running_stats=False)\n","    (2): LeakyReLU(negative_slope=0.2, inplace=True)\n","  )\n","  (scale2_layer2): Sequential(\n","    (0): Conv2d(128, 256, kernel_size=(4, 4), stride=(2, 2), padding=(2, 2))\n","    (1): InstanceNorm2d(256, eps=1e-05, momentum=0.1, affine=False, track_running_stats=False)\n","    (2): LeakyReLU(negative_slope=0.2, inplace=True)\n","  )\n","  (scale2_layer3): Sequential(\n","    (0): Conv2d(256, 512, kernel_size=(4, 4), stride=(1, 1), padding=(2, 2))\n","    (1): InstanceNorm2d(512, eps=1e-05, momentum=0.1, affine=False, track_running_stats=False)\n","    (2): LeakyReLU(negative_slope=0.2, inplace=True)\n","  )\n","  (scale2_layer4): Sequential(\n","    (0): Conv2d(512, 1, kernel_size=(4, 4), stride=(1, 1), padding=(2, 2))\n","  )\n","  (downsample): AvgPool2d(kernel_size=3, stride=2, padding=[1, 1])\n",")\n","NLayerDiscriminator(\n","  (facemodel): Sequential(\n","    (0): Conv2d(6, 64, kernel_size=(4, 4), stride=(2, 2), padding=(2, 2))\n","    (1): LeakyReLU(negative_slope=0.2, inplace=True)\n","    (2): Conv2d(64, 128, kernel_size=(4, 4), stride=(2, 2), padding=(2, 2))\n","    (3): BatchNorm2d(128, eps=1e-05, momentum=0.1, affine=True, track_running_stats=True)\n","    (4): LeakyReLU(negative_slope=0.2, inplace=True)\n","    (5): Conv2d(128, 256, kernel_size=(4, 4), stride=(2, 2), padding=(2, 2))\n","    (6): BatchNorm2d(256, eps=1e-05, momentum=0.1, affine=True, track_running_stats=True)\n","    (7): LeakyReLU(negative_slope=0.2, inplace=True)\n","    (8): Conv2d(256, 512, kernel_size=(4, 4), stride=(1, 1), padding=(2, 2))\n","    (9): BatchNorm2d(512, eps=1e-05, momentum=0.1, affine=True, track_running_stats=True)\n","    (10): LeakyReLU(negative_slope=0.2, inplace=True)\n","    (11): Conv2d(512, 1, kernel_size=(4, 4), stride=(1, 1), padding=(2, 2))\n","  )\n",")\n","GlobalGenerator(\n","  (model): Sequential(\n","    (0): ReflectionPad2d((3, 3, 3, 3))\n","    (1): Conv2d(6, 64, kernel_size=(7, 7), stride=(1, 1))\n","    (2): InstanceNorm2d(64, eps=1e-05, momentum=0.1, affine=False, track_running_stats=False)\n","    (3): ReLU(inplace=True)\n","    (4): Conv2d(64, 128, kernel_size=(3, 3), stride=(2, 2), padding=(1, 1))\n","    (5): InstanceNorm2d(128, eps=1e-05, momentum=0.1, affine=False, track_running_stats=False)\n","    (6): ReLU(inplace=True)\n","    (7): Conv2d(128, 256, kernel_size=(3, 3), stride=(2, 2), padding=(1, 1))\n","    (8): InstanceNorm2d(256, eps=1e-05, momentum=0.1, affine=False, track_running_stats=False)\n","    (9): ReLU(inplace=True)\n","    (10): Conv2d(256, 512, kernel_size=(3, 3), stride=(2, 2), padding=(1, 1))\n","    (11): InstanceNorm2d(512, eps=1e-05, momentum=0.1, affine=False, track_running_stats=False)\n","    (12): ReLU(inplace=True)\n","    (13): ResnetBlock(\n","      (conv_block): Sequential(\n","        (0): ReflectionPad2d((1, 1, 1, 1))\n","        (1): Conv2d(512, 512, kernel_size=(3, 3), stride=(1, 1))\n","        (2): InstanceNorm2d(512, eps=1e-05, momentum=0.1, affine=False, track_running_stats=False)\n","        (3): ReLU(inplace=True)\n","        (4): ReflectionPad2d((1, 1, 1, 1))\n","        (5): Conv2d(512, 512, kernel_size=(3, 3), stride=(1, 1))\n","        (6): InstanceNorm2d(512, eps=1e-05, momentum=0.1, affine=False, track_running_stats=False)\n","      )\n","    )\n","    (14): ResnetBlock(\n","      (conv_block): Sequential(\n","        (0): ReflectionPad2d((1, 1, 1, 1))\n","        (1): Conv2d(512, 512, kernel_size=(3, 3), stride=(1, 1))\n","        (2): InstanceNorm2d(512, eps=1e-05, momentum=0.1, affine=False, track_running_stats=False)\n","        (3): ReLU(inplace=True)\n","        (4): ReflectionPad2d((1, 1, 1, 1))\n","        (5): Conv2d(512, 512, kernel_size=(3, 3), stride=(1, 1))\n","        (6): InstanceNorm2d(512, eps=1e-05, momentum=0.1, affine=False, track_running_stats=False)\n","      )\n","    )\n","    (15): ResnetBlock(\n","      (conv_block): Sequential(\n","        (0): ReflectionPad2d((1, 1, 1, 1))\n","        (1): Conv2d(512, 512, kernel_size=(3, 3), stride=(1, 1))\n","        (2): InstanceNorm2d(512, eps=1e-05, momentum=0.1, affine=False, track_running_stats=False)\n","        (3): ReLU(inplace=True)\n","        (4): ReflectionPad2d((1, 1, 1, 1))\n","        (5): Conv2d(512, 512, kernel_size=(3, 3), stride=(1, 1))\n","        (6): InstanceNorm2d(512, eps=1e-05, momentum=0.1, affine=False, track_running_stats=False)\n","      )\n","    )\n","    (16): ResnetBlock(\n","      (conv_block): Sequential(\n","        (0): ReflectionPad2d((1, 1, 1, 1))\n","        (1): Conv2d(512, 512, kernel_size=(3, 3), stride=(1, 1))\n","        (2): InstanceNorm2d(512, eps=1e-05, momentum=0.1, affine=False, track_running_stats=False)\n","        (3): ReLU(inplace=True)\n","        (4): ReflectionPad2d((1, 1, 1, 1))\n","        (5): Conv2d(512, 512, kernel_size=(3, 3), stride=(1, 1))\n","        (6): InstanceNorm2d(512, eps=1e-05, momentum=0.1, affine=False, track_running_stats=False)\n","      )\n","    )\n","    (17): ResnetBlock(\n","      (conv_block): Sequential(\n","        (0): ReflectionPad2d((1, 1, 1, 1))\n","        (1): Conv2d(512, 512, kernel_size=(3, 3), stride=(1, 1))\n","        (2): InstanceNorm2d(512, eps=1e-05, momentum=0.1, affine=False, track_running_stats=False)\n","        (3): ReLU(inplace=True)\n","        (4): ReflectionPad2d((1, 1, 1, 1))\n","        (5): Conv2d(512, 512, kernel_size=(3, 3), stride=(1, 1))\n","        (6): InstanceNorm2d(512, eps=1e-05, momentum=0.1, affine=False, track_running_stats=False)\n","      )\n","    )\n","    (18): ConvTranspose2d(512, 256, kernel_size=(3, 3), stride=(2, 2), padding=(1, 1), output_padding=(1, 1))\n","    (19): InstanceNorm2d(256, eps=1e-05, momentum=0.1, affine=False, track_running_stats=False)\n","    (20): ReLU(inplace=True)\n","    (21): ConvTranspose2d(256, 128, kernel_size=(3, 3), stride=(2, 2), padding=(1, 1), output_padding=(1, 1))\n","    (22): InstanceNorm2d(128, eps=1e-05, momentum=0.1, affine=False, track_running_stats=False)\n","    (23): ReLU(inplace=True)\n","    (24): ConvTranspose2d(128, 64, kernel_size=(3, 3), stride=(2, 2), padding=(1, 1), output_padding=(1, 1))\n","    (25): InstanceNorm2d(64, eps=1e-05, momentum=0.1, affine=False, track_running_stats=False)\n","    (26): ReLU(inplace=True)\n","    (27): ReflectionPad2d((3, 3, 3, 3))\n","    (28): Conv2d(64, 3, kernel_size=(7, 7), stride=(1, 1))\n","    (29): Tanh()\n","  )\n",")\n","---------- Networks initialized -------------\n","Downloading: \"https://download.pytorch.org/models/vgg19-dcbb9e9d.pth\" to /root/.cache/torch/hub/checkpoints/vgg19-dcbb9e9d.pth\n","100% 548M/548M [00:02<00:00, 237MB/s]\n","------------- Only training the face discriminator network (for 10 epochs) ------------\n","mo
…
_instance: True\n","no_lsgan: False\n","no_vgg_loss: False\n","norm: instance\n","ntest: inf\n","num_D: 2\n","output_nc: 3\n","phase: test\n","pool_size: 0\n","resize_or_crop: none\n","results_dir: ./result/\n","serial_batches: False\n","tf_log: False\n","use_dropout: False\n","which_epoch: latest\n","-------------- End ----------------\n","CustomDatasetDataLoader\n","dataset [AlignedDataset] was created\n","----------- loading face bounding boxes from ./dataset/test/test_facetexts128 ----------\n","LocalEnhancer(\n","  (model): Sequential(\n","    (0): ReflectionPad2d((3, 3, 3, 3))\n","    (1): Conv2d(6, 64, kernel_size=(7, 7), stride=(1, 1))\n","    (2): InstanceNorm2d(64, eps=1e-05, momentum=0.1, affine=False, track_running_stats=False)\n","    (3): ReLU(inplace=True)\n","    (4): Conv2d(64, 128, kernel_size=(3, 3), stride=(2, 2), padding=(1, 1))\n","    (5): InstanceNorm2d(128, eps=1e-05, momentum=0.1, affine=False, track_running_stats=False)\n","    (6): ReLU(inplace=True)\n","    (7): Conv2d(128, 256, kernel_size=(3, 3), stride=(2, 2), padding=(1, 1))\n","    (8): InstanceNorm2d(256, eps=1e-05, momentum=0.1, affine=False, track_running_stats=False)\n","    (9): ReLU(inplace=True)\n","    (10): Conv2d(256, 512, kernel_size=(3, 3), stride=(2, 2), padding=(1, 1))\n","    (11): InstanceNorm2d(512, eps=1e-05, momentum=0.1, affine=False, track_running_stats=False)\n","    (12): ReLU(inplace=True)\n","    (13): Conv2d(512, 1024, kernel_size=(3, 3), stride=(2, 2), padding=(1, 1))\n","    (14): InstanceNorm2d(1024, eps=1e-05, momentum=0.1, affine=False, track_running_stats=False)\n","    (15): ReLU(inplace=True)\n","    (16): ResnetBlock(\n","      (conv_block): Sequential(\n","        (0): ReflectionPad2d((1, 1, 1, 1))\n","        (1): Conv2d(1024, 1024, kernel_size=(3, 3), stride=(1, 1))\n","        (2): InstanceNorm2d(1024, eps=1e-05, momentum=0.1, affine=False, track_running_stats=False)\n","        (3): ReLU(inplace=True)\n","        (4): ReflectionPad2d((1, 1, 1, 1))\n","        (5): Conv2d(1024, 1024, kernel_size=(3, 3), stride=(1, 1))\n","        (6): InstanceNorm2d(1024, eps=1e-05, momentum=0.1, affine=False, track_running_stats=False)\n","      )\n","    )\n","    (17): ResnetBlock(\n","      (conv_block): Sequential(\n","        (0): ReflectionPad2d((1, 1, 1, 1))\n","        (1): Conv2d(1024, 1024, kernel_size=(3, 3), stride=(1, 1))\n","        (2): InstanceNorm2d(1024, eps=1e-05, momentum=0.1, affine=False, track_running_stats=False)\n","        (3): ReLU(inplace=True)\n","        (4): ReflectionPad2d((1, 1, 1, 1))\n","        (5): Conv2d(1024, 1024, kernel_size=(3, 3), stride=(1, 1))\n","        (6): InstanceNorm2d(1024, eps=1e-05, momentum=0.1, affine=False, track_running_stats=False)\n","      )\n","    )\n","    (18): ResnetBlock(\n","      (conv_block): Sequential(\n","        (0): ReflectionPad2d((1, 1, 1, 1))\n","        (1): Conv2d(1024, 1024, kernel_size=(3, 3), stride=(1, 1))\n","        (2): InstanceNorm2d(1024, eps=1e-05, momentum=0.1, affine=False, track_running_stats=False)\n","        (3): ReLU(inplace=True)\n","        (4): ReflectionPad2d((1, 1, 1, 1))\n","        (5): Conv2d(1024, 1024, kernel_size=(3, 3), stride=(1, 1))\n","        (6): InstanceNorm2d(1024, eps=1e-05, momentum=0.1, affine=False, track_running_stats=False)\n","      )\n","    )\n","    (19): ResnetBlock(\n","      (conv_block): Sequential(\n","        (0): ReflectionPad2d((1, 1, 1, 1))\n","        (1): Conv2d(1024, 1024, kernel_size=(3, 3), stride=(1, 1))\n","        (2): InstanceNorm2d(1024, eps=1e-05, momentum=0.1, affine=False, track_running_stats=False)\n","        (3): ReLU(inplace=True)\n","        (4): ReflectionPad2d((1, 1, 1, 1))\n","        (5): Conv2d(1024, 1024, kernel_size=(3, 3), stride=(1, 1))\n","        (6): InstanceNorm2d(1024, eps=1e-05, momentum=0.1, affine=False, track_running_stats=False)\n","      )\n","    )\n","    (20): ResnetBlock(\n","      (conv_block): Sequential(\n","        (0): ReflectionPad2d((1, 1, 1, 1))\n","        (1): Conv2d(1024, 1024, kernel_size=(3, 3), stride=(1, 1))\n","        (2): InstanceNorm2d(1024, eps=1e-05, momentum=0.1, affine=False, track_running_stats=False)\n","        (3): ReLU(inplace=True)\n","        (4): ReflectionPad2d((1, 1, 1, 1))\n","        (5): Conv2d(1024, 1024, kernel_size=(3, 3), stride=(1, 1))\n","        (6): InstanceNorm2d(1024, eps=1e-05, momentum=0.1, affine=False, track_running_stats=False)\n","      )\n","    )\n","    (21): ResnetBlock(\n","      (conv_block): Sequential(\n","        (0): ReflectionPad2d((1, 1, 1, 1))\n","        (1): Conv2d(1024, 1024, kernel_size=(3, 3), stride=(1, 1))\n","        (2): InstanceNorm2d(1024, eps=1e-05, momentum=0.1, affine=False, track_running_stats=False)\n","        (3): ReLU(inplace=True)\n","        (4): ReflectionPad2d((1, 1, 1, 1))\n","        (5): Conv2d(1024, 1024, kernel_size=(3, 3), stride=(1, 1))\n","        (6): InstanceNorm2d(1024, eps=1e-05, momentum=0.1, affine=False, track_running_stats=False)\n","      )\n","    )\n","    (22): ResnetBlock(\n","      (conv_block): Sequential(\n","        (0): ReflectionPad2d((1, 1, 1, 1))\n","        (1): Conv2d(1024, 1024, kernel_size=(3, 3), stride=(1, 1))\n","        (2): InstanceNorm2d(1024, eps=1e-05, momentum=0.1, affine=False, track_running_stats=False)\n","        (3): ReLU(inplace=True)\n","        (4): ReflectionPad2d((1, 1, 1, 1))\n","        (5): Conv2d(1024, 1024, kernel_size=(3, 3), stride=(1, 1))\n","        (6): InstanceNorm2d(1024, eps=1e-05, momentum=0.1, affine=False, track_running_stats=False)\n","      )\n","    )\n","    (23): ResnetBlock(\n","      (conv_block): Sequential(\n","        (0): ReflectionPad2d((1, 1, 1, 1))\n","        (1): Conv2d(1024, 1024, kernel_size=(3, 3), stride=(1, 1))\n","        (2): InstanceNorm2d(1024, eps=1e-05, momentum=0.1, affine=False, track_running_stats=False)\n","        (3): ReLU(inplace=True)\n","        (4): ReflectionPad2d((1, 1, 1, 1))\n","        (5): Conv2d(1024, 1024, kernel_size=(3, 3), stride=(1, 1))\n","        (6): InstanceNorm2d(1024, eps=1e-05, momentum=0.1, affine=False, track_running_stats=False)\n","      )\n","    )\n","    (24): ResnetBlock(\n","      (conv_block): Sequential(\n","        (0): ReflectionPad2d((1, 1, 1, 1))\n","        (1): Conv2d(1024, 1024, kernel_size=(3, 3), stride=(1, 1))\n","        (2): InstanceNorm2d(1024, eps=1e-05, momentum=0.1, affine=False, track_running_stats=False)\n","        (3): ReLU(inplace=True)\n","        (4): ReflectionPad2d((1, 1, 1, 1))\n","        (5): Conv2d(1024, 1024, kernel_size=(3, 3), stride=(1, 1))\n","        (6): InstanceNorm2d(1024, eps=1e-05, momentum=0.1, affine=False, track_running_stats=False)\n","      )\n","    )\n","    (25): ConvTranspose2d(1024, 512, kernel_size=(3, 3), stride=(2, 2), padding=(1, 1), output_padding=(1, 1))\n","    (26): InstanceNorm2d(512, eps=1e-05, momentum=0.1, affine=False, track_running_stats=False)\n","    (27): ReLU(inplace=True)\n","    (28): ConvTranspose2d(512, 256, kernel_size=(3, 3), stride=(2, 2), padding=(1, 1), output_padding=(1, 1))\n","    (29): InstanceNorm2d(256, eps=1e-05, momentum=0.1, affine=False, track_running_stats=False)\n","    (30): ReLU(inplace=True)\n","    (31): ConvTranspose2d(256, 128, kernel_size=(3, 3), stride=(2, 2), padding=(1, 1), output_padding=(1, 1))\n","    (32): InstanceNorm2d(128, eps=1e-05, momentum=0.1, affine=False, track_running_stats=False)\n","    (33): ReLU(inplace=True)\n","    (34): ConvTranspose2d(128, 64, kernel_size=(3, 3), stride=(2, 2), padding=(1, 1), output_padding=(1, 1))\n","    (35): InstanceNorm2d(64, eps=1e-05, momentum=0.1, affine=False, track_running_stats=False)\n","    (36): ReLU(inplace=True)\n","  )\n","  (model1_1): Sequential(\n","    (0): ReflectionPad2d((3, 3, 3, 3))\n","    (1): Conv2d(6, 32, kernel_size=(7, 7), stride=(1, 1))\n","    (2): InstanceNorm2d(32, eps=1e-05, momentum=0.1, affine=False, track_running_stats=False)\n","    (3): ReLU(inplace=True)\n","    (4): Conv2d(32, 64, kernel_size=(3, 3), stride=(2, 2), padding=(1, 1))\n","    (5): InstanceNorm2d(64, eps=1e-05, momentum=0.1, affine=False, track_running_stats=False)\n","    (6): ReLU(inplace=True)\n","  )\n","  (model1_2): Sequential(\n","    (0): ResnetBlock(\n","      (conv_block): Sequential(\n","        (0): ReflectionPad2d((1, 1, 1, 1))\n","        (1): Conv2d(64, 64, kernel_size=(3, 3), stride=(1, 1))\n","        (2): InstanceNorm2d(64, eps=1e-05, momentum=0.1, affine=False, track_running_stats=False)\n","        (3): ReLU(inplace=True)\n","        (4): ReflectionPad2d((1, 1, 1, 1))\n","        (5): Conv2d(64, 64, kernel_size=(3, 3), stride=(1, 1))\n","        (6): InstanceNorm2d(64, eps=1e-05, momentum=0.1, affine=False, track_running_stats=False)\n","      )\n","    )\n","    (1): ResnetBlock(\n","      (conv_block): Sequential(\n","        (0): ReflectionPad2d((1, 1, 1, 1))\n","        (1): Conv2d(64, 64, kernel_size=(3, 3), stride=(1, 1))\n","        (2): InstanceNorm2d(64, eps=1e-05, momentum=0.1, affine=False, track_running_stats=False)\n","        (3): ReLU(inplace=True)\n","        (4): ReflectionPad2d((1, 1, 1, 1))\n","        (5): Conv2d(64, 64, kernel_size=(3, 3), stride=(1, 1))\n","        (6): InstanceNorm2d(64, eps=1e-05, momentum=0.1, affine=False, track_running_stats=False)\n","      )\n","    )\n","    (2): ResnetBlock(\n","      (conv_block): Sequential(\n","        (0): ReflectionPad2d((1, 1, 1, 1))\n","        (1): Conv2d(64, 64, kernel_size=(3, 3), stride=(1, 1))\n","        (2): InstanceNorm2d(64, eps=1e-05, momentum=0.1, affine=False, track_running_stats=False)\n","        (3): ReLU(inplace=True)\n","        (4): ReflectionPad2d((1, 1, 1, 1))\n","        (5): Conv2d(64, 64, kernel_size=(3, 3), stride=(1, 1))\n","        (6): InstanceNorm2d(64, eps=1e-05, momentum=0.1, affine=False, track_running_stats=False)\n","      )\n","    )\n","    (3): ConvTranspose2d(64, 32, kernel_size=(3, 3), stride=(2, 2), padding=(1, 1), output_padding=(1, 1))\n","    (4): InstanceNorm2d(32, eps=1e-05, momentum=0.1, affine=False, track_running_stats=False)\n","    (5): ReLU(inplace=True)\n","    (6): ReflectionPad2d((3, 3, 3, 3))\n","    (7): Conv2d(32, 3, kernel_size=(7, 7), stride=(1, 1))\n","    (8): Tanh()\n","  )\n","  (downsample): AvgPool2d(kernel_size=3, stride=2, padding=[1, 1])\n",")\n","GlobalGenerator(\n","  (model): Sequential(\n","    (0): ReflectionPad2d((3, 3, 3, 3))\n","    (1): Conv2d(6, 64, kernel_size=(7, 7), stride=(1, 1))\n","    (2): InstanceNorm2d(64, eps=1e-05, momentum=0.1, affine=False, track_running_stats=False)\n","    (3): ReLU(inplace=True)\n","    (4): Conv2d(64, 128, kernel_size=(3, 3), stride=(2, 2), padding=(1, 1))\n","    (5): InstanceNorm2d(128, eps=1e-05, momentum=0.1, affine=False, track_running_stats=False)\n","    (6): ReLU(inplace=True)\n","    (7): Conv2d(128, 256, kernel_size=(3, 3), stride=(2, 2), padding=(1, 1))\n","    (8): InstanceNorm2d(256, eps=1e-05, momentum=0.1, affine=False, track_running_stats=False)\n","    (9): ReLU(inplace=True)\n","    (10): Conv2d(256, 512, kernel_size=(3, 3), stride=(2, 2), padding=(1, 1))\n","    (11): InstanceNorm2d(512, eps=1e-05, momentum=0.1, affine=False, track_running_stats=False)\n","    (12): ReLU(inplace=True)\n","    (13): ResnetBlock(\n","      (conv_block): Sequential(\n","        (0): ReflectionPad2d((1, 1, 1, 1))\n","        (1): Conv2d(512, 512, kernel_size=(3, 3), stride=(1, 1))\n","        (2): InstanceNorm2d(512, eps=1e-05, momentum=0.1, affine=False, track_running_stats=False)\n","        (3): ReLU(inplace=True)\n","        (4): ReflectionPad2d((1, 1, 1, 1))\n","        (5): Conv2d(512, 512, kernel_size=(3, 3), stride=(1, 1))\n","        (6): InstanceNorm2d(512, eps=1e-05, momentum=0.1, affine=False, track_running_stats=False)\n","      )\n","    )\n","    (14): ResnetBlock(\n","      (conv_block): Sequential(\n","        (0): ReflectionPad2d((1, 1, 1, 1))\n","        (1): Conv2d(512, 512, kernel_size=(3, 3), stride=(1, 1))\n","        (2): InstanceNorm2d(512, eps=1e-05, momentum=0.1, affine=False, track_running_stats=False)\n","        (3): ReLU(inplace=True)\n","        (4): ReflectionPad2d((1, 1, 1, 1))\n","        (5): Conv2d(512, 512, kernel_size=(3, 3), stride=(1, 1))\n","        (6): InstanceNorm2d(512, eps=1e-05, momentum=0.1, affine=False, track_running_stats=False)\n","      )\n","    )\n","    (15): ResnetBlock(\n","      (conv_block): Sequential(\n","        (0): ReflectionPad2d((1, 1, 1, 1))\n","        (1): Conv2d(512, 512, kernel_size=(3, 3), stride=(1, 1))\n","        (2): InstanceNorm2d(512, eps=1e-05, momentum=0.1, affine=False, track_running_stats=False)\n","        (3): ReLU(inplace=True)\n","        (4): ReflectionPad2d((1, 1, 1, 1))\n","        (5): Conv2d(512, 512, kernel_size=(3, 3), stride=(1, 1))\n","        (6): InstanceNorm2d(512, eps=1e-05, momentum=0.1, affine=False, track_running_stats=False)\n","      )\n","    )\n","    (16): ResnetBlock(\n","      (conv_block): Sequential(\n","        (0): ReflectionPad2d((1, 1, 1, 1))\n","        (1): Conv2d(512, 512, kernel_size=(3, 3), stride=(1, 1))\n","        (2): InstanceNorm2d(512, eps=1e-05, momentum=0.1, affine=False, track_running_stats=False)\n","        (3): ReLU(inplace=True)\n","        (4): ReflectionPad2d((1, 1, 1, 1))\n","        (5): Conv2d(512, 512, kernel_size=(3, 3), stride=(1, 1))\n","        (6): InstanceNorm2d(512, eps=1e-05, momentum=0.1, affine=False, track_running_stats=False)\n","      )\n","    )\n","    (17): ResnetBlock(\n","      (conv_block): Sequential(\n","        (0): ReflectionPad2d((1, 1, 1, 1))\n","        (1): Conv2d(512, 512, kernel_size=(3, 3), stride=(1, 1))\n","        (2): InstanceNorm2d(512, eps=1e-05, momentum=0.1, affine=False, track_running_stats=False)\n","        (3): ReLU(inplace=True)\n","        (4): ReflectionPad2d((1, 1, 1, 1))\n","        (5): Conv2d(512, 512, kernel_size=(3, 3), stride=(1, 1))\n","        (6): InstanceNorm2d(512, eps=1e-05, momentum=0.1, affine=False, track_running_stats=False)\n","      )\n","    )\n","    (18): ConvTranspose2d(512, 256, kernel_size=(3, 3), stride=(2, 2), padding=(1, 1), output_padding=(1, 1))\n","    (19): InstanceNorm2d(256, eps=1e-05, momentum=0.1, affine=False, track_running_stats=False)\n","    (20): ReLU(inplace=True)\n","    (21): ConvTranspose2d(256, 128, kernel_size=(3, 3), stride=(2, 2), padding=(1, 1), output_padding=(1, 1))\n","    (22): InstanceNorm2d(128, eps=1e-05, momentum=0.1, affine=False, track_running_stats=False)\n","    (23): ReLU(inplace=True)\n","    (24): ConvTranspose2d(128, 64, kernel_size=(3, 3), stride=(2, 2), padding=(1, 1), output_padding=(1, 1))\n","    (25): InstanceNorm2d(64, eps=1e-05, momentum=0.1, affine=False, track_running_stats=False)\n","    (26): ReLU(inplace=True)\n","    (27): ReflectionPad2d((3, 3, 3, 3))\n","    (28): Conv2d(64, 3, kernel_size=(7, 7), stride=(1, 1))\n","    (29): Tanh()\n","  )\n",")\n","---------- Networks initialized -------------\n","model [Pix2PixHDModel] was created\n","#testing images = 4556\n","/content/drive/.shortcut-targets-by-id/1PuMN2bdU-v7ZjQ6M81zrEYpEeLn2oKDl/Colab_Files/EverybodyDanceNow/models/pix2pixHD_model_fullts.py:131: UserWarning: volatile was removed and now has no effect. Use `
…
iter_fix_global: 0\n","niter_fix_main: 0\n","no_flip: False\n","no_ganFeat_loss: False\n","no_instance: True\n","no_lsgan: False\n","no_vgg_loss: False\n","norm: instance\n","ntest: inf\n","num_D: 2\n","output_nc: 3\n","phase: test\n","pool_size: 0\n","resize_or_crop: none\n","results_dir: ./result/\n","serial_batches: False\n","tf_log: False\n","use_dropout: False\n","which_epoch: latest\n","-------------- End ----------------\n","CustomDatasetDataLoader\n","dataset [AlignedDataset] was created\n","LocalEnhancer(\n","  (model): Sequential(\n","    (0): ReflectionPad2d((3, 3, 3, 3))\n","    (1): Conv2d(6, 64, kernel_size=(7, 7), stride=(1, 1))\n","    (2): InstanceNorm2d(64, eps=1e-05, momentum=0.1, affine=False, track_running_stats=False)\n","    (3): ReLU(inplace=True)\n","    (4): Conv2d(64, 128, kernel_size=(3, 3), stride=(2, 2), padding=(1, 1))\n","    (5): InstanceNorm2d(128, eps=1e-05, momentum=0.1, affine=False, track_running_stats=False)\n","    (6): ReLU(inplace=True)\n","    (7): Conv2d(128, 256, kernel_size=(3, 3), stride=(2, 2), padding=(1, 1))\n","    (8): InstanceNorm2d(256, eps=1e-05, momentum=0.1, affine=False, track_running_stats=False)\n","    (9): ReLU(inplace=True)\n","    (10): Conv2d(256, 512, kernel_size=(3, 3), stride=(2, 2), padding=(1, 1))\n","    (11): InstanceNorm2d(512, eps=1e-05, momentum=0.1, affine=False, track_running_stats=False)\n","    (12): ReLU(inplace=True)\n","    (13): Conv2d(512, 1024, kernel_size=(3, 3), stride=(2, 2), padding=(1, 1))\n","    (14): InstanceNorm2d(1024, eps=1e-05, momentum=0.1, affine=False, track_running_stats=False)\n","    (15): ReLU(inplace=True)\n","    (16): ResnetBlock(\n","      (conv_block): Sequential(\n","        (0): ReflectionPad2d((1, 1, 1, 1))\n","        (1): Conv2d(1024, 1024, kernel_size=(3, 3), stride=(1, 1))\n","        (2): InstanceNorm2d(1024, eps=1e-05, momentum=0.1, affine=False, track_running_stats=False)\n","        (3): ReLU(inplace=True)\n","        (4): ReflectionPad2d((1, 1, 1, 1))\n","        (5): Conv2d(1024, 1024, kernel_size=(3, 3), stride=(1, 1))\n","        (6): InstanceNorm2d(1024, eps=1e-05, momentum=0.1, affine=False, track_running_stats=False)\n","      )\n","    )\n","    (17): ResnetBlock(\n","      (conv_block): Sequential(\n","        (0): ReflectionPad2d((1, 1, 1, 1))\n","        (1): Conv2d(1024, 1024, kernel_size=(3, 3), stride=(1, 1))\n","        (2): InstanceNorm2d(1024, eps=1e-05, momentum=0.1, affine=False, track_running_stats=False)\n","        (3): ReLU(inplace=True)\n","        (4): ReflectionPad2d((1, 1, 1, 1))\n","        (5): Conv2d(1024, 1024, kernel_size=(3, 3), stride=(1, 1))\n","        (6): InstanceNorm2d(1024, eps=1e-05, momentum=0.1, affine=False, track_running_stats=False)\n","      )\n","    )\n","    (18): ResnetBlock(\n","      (conv_block): Sequential(\n","        (0): ReflectionPad2d((1, 1, 1, 1))\n","        (1): Conv2d(1024, 1024, kernel_size=(3, 3), stride=(1, 1))\n","        (2): InstanceNorm2d(1024, eps=1e-05, momentum=0.1, affine=False, track_running_stats=False)\n","        (3): ReLU(inplace=True)\n","        (4): ReflectionPad2d((1, 1, 1, 1))\n","        (5): Conv2d(1024, 1024, kernel_size=(3, 3), stride=(1, 1))\n","        (6): InstanceNorm2d(1024, eps=1e-05, momentum=0.1, affine=False, track_running_stats=False)\n","      )\n","    )\n","    (19): ResnetBlock(\n","      (conv_block): Sequential(\n","        (0): ReflectionPad2d((1, 1, 1, 1))\n","        (1): Conv2d(1024, 1024, kernel_size=(3, 3), stride=(1, 1))\n","        (2): InstanceNorm2d(1024, eps=1e-05, momentum=0.1, affine=False, track_running_stats=False)\n","        (3): ReLU(inplace=True)\n","        (4): ReflectionPad2d((1, 1, 1, 1))\n","        (5): Conv2d(1024, 1024, kernel_size=(3, 3), stride=(1, 1))\n","        (6): InstanceNorm2d(1024, eps=1e-05, momentum=0.1, affine=False, track_running_stats=False)\n","      )\n","    )\n","    (20): ResnetBlock(\n","      (conv_block): Sequential(\n","        (0): ReflectionPad2d((1, 1, 1, 1))\n","        (1): Conv2d(1024, 1024, kernel_size=(3, 3), stride=(1, 1))\n","        (2): InstanceNorm2d(1024, eps=1e-05, momentum=0.1, affine=False, track_running_stats=False)\n","        (3): ReLU(inplace=True)\n","        (4): ReflectionPad2d((1, 1, 1, 1))\n","        (5): Conv2d(1024, 1024, kernel_size=(3, 3), stride=(1, 1))\n","        (6): InstanceNorm2d(1024, eps=1e-05, momentum=0.1, affine=False, track_running_stats=False)\n","      )\n","    )\n","    (21): ResnetBlock(\n","      (conv_block): Sequential(\n","        (0): ReflectionPad2d((1, 1, 1, 1))\n","        (1): Conv2d(1024, 1024, kernel_size=(3, 3), stride=(1, 1))\n","        (2): InstanceNorm2d(1024, eps=1e-05, momentum=0.1, affine=False, track_running_stats=False)\n","        (3): ReLU(inplace=True)\n","        (4): ReflectionPad2d((1, 1, 1, 1))\n","        (5): Conv2d(1024, 1024, kernel_size=(3, 3), stride=(1, 1))\n","        (6): InstanceNorm2d(1024, eps=1e-05, momentum=0.1, affine=False, track_running_stats=False)\n","      )\n","    )\n","    (22): ResnetBlock(\n","      (conv_block): Sequential(\n","        (0): ReflectionPad2d((1, 1, 1, 1))\n","        (1): Conv2d(1024, 1024, kernel_size=(3, 3), stride=(1, 1))\n","        (2): InstanceNorm2d(1024, eps=1e-05, momentum=0.1, affine=False, track_running_stats=False)\n","        (3): ReLU(inplace=True)\n","        (4): ReflectionPad2d((1, 1, 1, 1))\n","        (5): Conv2d(1024, 1024, kernel_size=(3, 3), stride=(1, 1))\n","        (6): InstanceNorm2d(1024, eps=1e-05, momentum=0.1, affine=False, track_running_stats=False)\n","      )\n","    )\n","    (23): ResnetBlock(\n","      (conv_block): Sequential(\n","        (0): ReflectionPad2d((1, 1, 1, 1))\n","        (1): Conv2d(1024, 1024, kernel_size=(3, 3), stride=(1, 1))\n","        (2): InstanceNorm2d(1024, eps=1e-05, momentum=0.1, affine=False, track_running_stats=False)\n","        (3): ReLU(inplace=True)\n","        (4): ReflectionPad2d((1, 1, 1, 1))\n","        (5): Conv2d(1024, 1024, kernel_size=(3, 3), stride=(1, 1))\n","        (6): InstanceNorm2d(1024, eps=1e-05, momentum=0.1, affine=False, track_running_stats=False)\n","      )\n","    )\n","    (24): ResnetBlock(\n","      (conv_block): Sequential(\n","        (0): ReflectionPad2d((1, 1, 1, 1))\n","        (1): Conv2d(1024, 1024, kernel_size=(3, 3), stride=(1, 1))\n","        (2): InstanceNorm2d(1024, eps=1e-05, momentum=0.1, affine=False, track_running_stats=False)\n","        (3): ReLU(inplace=True)\n","        (4): ReflectionPad2d((1, 1, 1, 1))\n","        (5): Conv2d(1024, 1024, kernel_size=(3, 3), stride=(1, 1))\n","        (6): InstanceNorm2d(1024, eps=1e-05, momentum=0.1, affine=False, track_running_stats=False)\n","      )\n","    )\n","    (25): ConvTranspose2d(1024, 512, kernel_size=(3, 3), stride=(2, 2), padding=(1, 1), output_padding=(1, 1))\n","    (26): InstanceNorm2d(512, eps=1e-05, momentum=0.1, affine=False, track_running_stats=False)\n","    (27): ReLU(inplace=True)\n","    (28): ConvTranspose2d(512, 256, kernel_size=(3, 3), stride=(2, 2), padding=(1, 1), output_padding=(1, 1))\n","    (29): InstanceNorm2d(256, eps=1e-05, momentum=0.1, affine=False, track_running_stats=False)\n","    (30): ReLU(inplace=True)\n","    (31): ConvTranspose2d(256, 128, kernel_size=(3, 3), stride=(2, 2), padding=(1, 1), output_padding=(1, 1))\n","    (32): InstanceNorm2d(128, eps=1e-05, momentum=0.1, affine=False, track_running_stats=False)\n","    (33): ReLU(inplace=True)\n","    (34): ConvTranspose2d(128, 64, kernel_size=(3, 3), stride=(2, 2), padding=(1, 1), output_padding=(1, 1))\n","    (35): InstanceNorm2d(64, eps=1e-05, momentum=0.1, affine=False, track_running_stats=False)\n","    (36): ReLU(inplace=True)\n","  )\n","  (model1_1): Sequential(\n","    (0): ReflectionPad2d((3, 3, 3, 3))\n","    (1): Conv2d(6, 32, kernel_size=(7, 7), stride=(1, 1))\n","    (2): InstanceNorm2d(32, eps=1e-05, momentum=0.1, affine=False, track_running_stats=False)\n","    (3): ReLU(inplace=True)\n","    (4): Conv2d(32, 64, kernel_size=(3, 3), stride=(2, 2), padding=(1, 1))\n","    (5): InstanceNorm2d(64, eps=1e-05, momentum=0.1, affine=False, track_running_stats=False)\n","    (6): ReLU(inplace=True)\n","  )\n","  (model1_2): Sequential(\n","    (0): ResnetBlock(\n","      (conv_block): Sequential(\n","        (0): ReflectionPad2d((1, 1, 1, 1))\n","        (1): Conv2d(64, 64, kernel_size=(3, 3), stride=(1, 1))\n","        (2): InstanceNorm2d(64, eps=1e-05, momentum=0.1, affine=False, track_running_stats=False)\n","        (3): ReLU(inplace=True)\n","        (4): ReflectionPad2d((1, 1, 1, 1))\n","        (5): Conv2d(64, 64, kernel_size=(3, 3), stride=(1, 1))\n","        (6): InstanceNorm2d(64, eps=1e-05, momentum=0.1, affine=False, track_running_stats=False)\n","      )\n","    )\n","    (1): ResnetBlock(\n","      (conv_block): Sequential(\n","        (0): ReflectionPad2d((1, 1, 1, 1))\n","        (1): Conv2d(64, 64, kernel_size=(3, 3), stride=(1, 1))\n","        (2): InstanceNorm2d(64, eps=1e-05, momentum=0.1, affine=False, track_running_stats=False)\n","        (3): ReLU(inplace=True)\n","        (4): ReflectionPad2d((1, 1, 1, 1))\n","        (5): Conv2d(64, 64, kernel_size=(3, 3), stride=(1, 1))\n","        (6): InstanceNorm2d(64, eps=1e-05, momentum=0.1, affine=False, track_running_stats=False)\n","      )\n","    )\n","    (2): ResnetBlock(\n","      (conv_block): Sequential(\n","        (0): ReflectionPad2d((1, 1, 1, 1))\n","        (1): Conv2d(64, 64, kernel_size=(3, 3), stride=(1, 1))\n","        (2): InstanceNorm2d(64, eps=1e-05, momentum=0.1, affine=False, track_running_stats=False)\n","        (3): ReLU(inplace=True)\n","        (4): ReflectionPad2d((1, 1, 1, 1))\n","        (5): Conv2d(64, 64, kernel_size=(3, 3), stride=(1, 1))\n","        (6): InstanceNorm2d(64, eps=1e-05, momentum=0.1, affine=False, track_running_stats=False)\n","      )\n","    )\n","    (3): ConvTranspose2d(64, 32, kernel_size=(3, 3), stride=(2, 2), padding=(1, 1), output_padding=(1, 1))\n","    (4): InstanceNorm2d(32, eps=1e-05, momentum=0.1, affine=False, track_running_stats=False)\n","    (5): ReLU(inplace=True)\n","    (6): ReflectionPad2d((3, 3, 3, 3))\n","    (7): Conv2d(32, 3, kernel_size=(7, 7), stride=(1, 1))\n","    (8): Tanh()\n","  )\n","  (downsample): AvgPool2d(kernel_size=3, stride=2, padding=[1, 1])\n",")\n","---------- Networks initialized -------------\n","model [Pix2PixHDModel] was created\n","#testing images = 908\n","/content/drive/My Drive/Colab_Files/EverybodyDanceNow/models/pix2pixHD_model_fullts.py:131: UserWarning: volatile was removed and now 
…
